dataFile/model/data.pth (torch_old, 2576 bytes, 10 tensors)

RNNlayer.weight_ih_l0 f4 [16, 3]
000000 3a d9 4d 3e 55 54 c3 be 0e 9d 93 bd 0f 59 84 3e
       0.20102397 -0.38150278 -0.0720769 0.25849196
000010 8e d0 49 bc 34 35 0d bf 10 dd 43 bf a8 6a 0e bf
       -0.01231779 -0.55159307 -0.7650919 -0.55631495
000020 80 11 bb be 14 6e cc bc 48 7f 80 be 58 17 e8 be
       -0.3653679 -0.024954833 -0.25097108 -0.4533031
000030 b4 02 7f bd 42 0b cf 3d 60 35 68 be 2b 88 ad 3e
       -0.062258437 0.10109569 -0.22676611 0.3389295
000040 36 fe 34 bf 83 ca 5f bd d3 7b f1 bd ec 2a 54 3e
       -0.70700395 -0.05463649 -0.11791196 0.20719498
000050 da 31 57 3c 55 da d2 3d 3b 31 36 bf b3 10 bc 3e
       0.013134444 0.1029555 -0.7116887 0.3673149
000060 f2 3f c7 3e c8 aa 9e 3e 1c a0 64 be 9f a8 0a 3f
       0.38915974 0.3098967 -0.22326702 0.54163545
000070 cb 72 9d 3d 8a d4 80 be 60 bf 02 3f 5b 8f a4 3e
       0.07687911 -0.25162154 0.51073265 0.32140622
000080 a1 ce 33 be c6 ef f9 3e 71 eb a4 3c ce 20 2a 3f
       -0.17559291 0.48815745 0.020131798 0.66456306
000090 2f 2e da be 49 8b a2 be 59 02 a5 be a2 63 83 bf
       -0.4261336 -0.3174689 -0.32228354 -1.026478
0000a0 e5 b1 2b bf 27 f1 a6 3d 62 11 30 bf 4a c0 a1 be
       -0.6706832 0.08151465 -0.68776524 -0.31592017
0000b0 96 6c a1 be b4 c9 8f 3e 93 a3 08 be 54 7c 47 3f
       -0.31528157 0.28083575 -0.13343649 0.77924085

RNNlayer.weight_hh_l0 f4 [16, 4]
000000 19 9f ab 3e ec 90 ca 3e cd 7e 5b 3f 2c 02 bc 3c
       0.3351982 0.39563692 0.8574036 0.022950254
000010 95 b3 79 bc 58 e9 5f 3d 70 e2 55 3e d5 33 25 3d
       -0.01524057 0.054665893 0.2088716 0.040332634
000020 eb 26 08 3f 99 78 b1 3e 38 bf 76 3c 2b a6 62 be
       0.53184384 0.3466232 0.015060239 -0.221337
000030 f8 be 3d 3f 26 0f dc 3e 68 5d 4d 3f d7 89 60 be
       0.7411952 0.42980307 0.8022065 -0.21927582
000040 6b 4b de be 01 51 96 be 19 3e e7 bd ed d2 8b 3e
       -0.43416914 -0.29358676 -0.11291141 0.2730936
000050 0d b4 99 3e f0 98 c4 3e f4 88 1e bd 2c c0 19 bf
       0.3002018 0.38397932 -0.038704827 -0.60058856
000060 99 6f 92 bd df e8 e5 3d f8 78 52 3d 07 cd 18 bf
       -0.07150192 0.11226057 0.051384896 -0.59687847
000070 55 2b e4 3e f6 f8 84 be df e7 60 3f 6a 0c 77 bf
       0.4456431 -0.25971192 0.8785381 -0.9650332
000080 f4 ea 9d 3c 46 e7 7f be 0b 6c f4 3e d9 de 1a be
       0.019277073 -0.24990568 0.4773868 -0.15124072
000090 5f dc 9e be f0 50 bf 3e c3 f2 ec 3e d2 04 16 3f
       -0.31027505 0.37366438 0.46278962 0.58601105
0000a0 74 c9 d4 bd be fb f3 be 83 af c7 3e a2 70 50 3e
       -0.10389987 -0.47653002 0.39001092 0.20355466
0000b0 a0 30 ec 3d 85 19 d4 3d 85 9c a2 3e 21 31 85 3e
       0.11532712 0.1035643 0.3176004 0.26014045
0000c0 7c 11 39 3e 00 ea 81 be 6a 31 f5 3e 63 2a 3b bd
       0.18073076 -0.2537384 0.47889262 -0.04569472
0000d0 74 e1 26 bd 51 3d 1f 3d 38 83 90 3f c0 54 01 3e
       -0.040742353 0.038876835 1.1290045 0.12629986
0000e0 68 db 10 3f 69 c6 15 3f f7 a7 c6 3e a1 e1 d8 bd
       0.5658479 0.58505875 0.38800022 -0.1058991
0000f0 5f fb 25 be e3 5d 50 bc 6b 32 2a 3e 8c 48 84 be
       -0.16209172 -0.012717697 0.16620795 -0.258366

RNNlayer.bias_ih_l0 f4 [16]
000000 98 84 67 be 6e 6b bd be 84 b3 4a 3f 79 cb 37 3e
       -0.22609174 -0.36996025 0.7918017 0.17948712
000010 6f 73 ab 3e 67 b2 7e be ed 24 8c 3e e5 0f 2f 3f
       0.33486506 -0.24872743 0.27371922 0.6838363
000020 99 e6 13 3e 48 5d e9 3d 46 5a 37 3e 86 f9 44 bf
       0.14443435 0.11394745 0.1790553 -0.7694324
000030 14 f4 1d 3e 8c 8b 76 3e 1f 9a e3 bc ba 61 04 3e
       0.1542514 0.2407667 -0.027783452 0.12927905

RNNlayer.bias_hh_l0 f4 [16]
000000 f6 0f 2b be de 90 92 be d6 86 dd 3e b4 93 41 3f
       -0.16705307 -0.2862615 0.43266934 0.75616
000010 db 65 9e bd 9a 13 2f 3e b4 8b aa be 42 71 c6 bd
       -0.07734271 0.17097321 -0.3330971 -0.09689571
000020 d6 bc 76 3d ff 18 ae 3e fb 21 2a be 65 1e 8a bd
       0.06023868 0.34003446 -0.16614525 -0.067440785
000030 24 76 84 3e 3b a5 03 3d e3 f8 d4 3e 38 47 bd 3e
       0.25871384 0.032139998 0.41596135 0.36968398

outputLayer.weight f4 [5, 4]
000000 f0 a8 bd 3e 27 04 33 3f e1 8f 29 3e 39 99 c7 3e
       0.37042952 0.6992821 0.16558792 0.38984087
000010 86 16 e5 be 3f f8 02 bf 86 bc ee be 4d 63 7b 3c
       -0.44743747 -0.51160043 -0.46628207 0.015343499
000020 c3 e9 6c be 24 c4 cf be 25 ce 5d bf 2a 90 42 bf
       -0.23136048 -0.4057933 -0.86642677 -0.76001227
000030 4c ec f2 be a0 f5 b5 3e da d9 ed 3e 04 9e f1 be
       -0.47445905 0.3553896 0.4645527 -0.4719087
000040 fa c3 9a 3e 30 53 af be f1 f7 9f be 0f c4 3b bd
       0.30227643 -0.34243155 -0.31243852 -0.045841273

outputLayer.bias f4 [5]
000000 a5 0f e9 3e 98 c0 07 3f bd bf a0 3e dc df c1 be
       0.45519748 0.5302825 0.31396285 -0.37866104
000010 b5 00 87 be
       -0.26367727

linear1.weight f4 [1, 5]
000000 b3 17 dd be 2c 37 b7 3e 6e 53 a1 3e 12 5e cc be
       -0.43182144 0.3578428 0.31508964 -0.3991552
000010 de 97 70 bc
       -0.014684645

laneGate1.weight f4 [3, 1]
000000 70 d5 1a bf 86 79 39 bf 84 28 ca 3e
       -0.6048193 -0.72451055 0.39484036

laneGate1.bias f4 [3]
000000 80 5b 5d 3e c0 45 ea 3e cd 28 47 bf
       0.21616936 0.4575634 -0.7779663

laneGate2.weight f4 [1, 3]
000000 fe 90 0a 3f f6 5e e7 be 76 48 76 3d
       0.5412749 -0.45189637 0.060127698
