dataFile/model/defualt.pth (torch_old, 2576 bytes, 10 tensors)

RNNlayer.weight_ih_l0 f4 [16, 3]
000000 9f 7c a1 be 5c b7 09 bf 18 ba 6c 3e 6c c0 fa 3e
       -0.3154039 -0.5379541 0.23117864 0.4897493
000010 83 84 a8 3d d6 2f d0 3e a2 a0 72 be 30 2b d9 be
       0.082283996 0.40661496 -0.23694089 -0.42415762
000020 2c ad be bc 08 b5 c8 be 99 ce bb bf 97 ac 5c bf
       -0.023275934 -0.39200616 -1.4672424 -0.8620085
000030 fe 18 0a bc ac 3e 91 bf 84 74 4f 3d 54 44 39 3e
       -0.00842881 -1.1347251 0.050648227 0.18092471
000040 62 86 88 3e 39 d9 41 be 01 a6 06 3f e4 48 65 be
       0.26665026 -0.1893052 0.5259705 -0.22391087
000050 18 02 a3 bd f3 9b c5 3e 19 00 09 3f fa d7 1e be
       -0.07959384 0.38595542 0.53515774 -0.15512076
000060 b9 14 8d be 19 ea a0 bf 1e 3a 95 3d ef 52 04 3f
       -0.27554873 -1.2571441 0.072864756 0.51689047
000070 47 bb 59 3d 64 1f 1d bf df 6b 14 bf 47 ab 00 bd
       0.053157117 -0.61376023 -0.579771 -0.031413343
000080 9f b7 a0 3e da 79 34 3f dd e9 90 3e 35 d5 6b be
       0.31390092 0.7049843 0.28303424 -0.23030551
000090 27 c8 75 bf 23 1e 78 bf 49 5d ca be d0 59 de bd
       -0.96008533 -0.96920985 -0.39524296 -0.10856974
0000a0 ef eb f3 3e 56 da 96 bb da f4 c3 bf 28 9c 99 bd
       0.4764094 -0.0046036644 -1.5309098 -0.075004876
0000b0 f6 19 a1 bc de 3f 89 bf 37 2e 29 3d 50 9b c0 be
       -0.0196657 -1.0722616 0.04130384 -0.37618494

RNNlayer.weight_hh_l0 f4 [16, 4]
000000 e2 f0 8a be 08 90 06 3e cd 89 e2 be c7 19 d1 be
       -0.27136904 0.13140881 -0.4424576 -0.4083998
000010 da a1 c8 be b3 63 11 be 36 a1 f5 3e 2a 7a 03 3e
       -0.39185983 -0.14198188 0.47974557 0.1283957
000020 63 11 fe 3d dd ef 12 3e 3e 94 a5 3e ac 97 a4 3f
       0.1240566 0.14349313 0.32339662 1.2858787
000030 d6 0b 43 3f 59 c9 f3 3f 85 98 c4 3e 33 ca a5 3e
       0.76189935 1.9045821 0.38397613 0.32380828
000040 2d d7 ba 3e 72 bb c3 be 85 0b 68 3e c3 52 5f be
       0.3649229 -0.38228947 0.22660644 -0.21808915
000050 85 37 4a 3d b6 dd eb 3d 6c c0 7c bd 9e 3d 8b 3e
       0.049369354 0.115168974 -0.061706945 0.27195448
000060 af 0d 21 bf 83 8c 1d bd 51 13 cd 3e a3 46 a5 3e
       -0.62911505 -0.03846408 0.400538 0.32280454
000070 b0 73 c9 be 1a a4 e1 bd 55 8e 0c 3f 58 12 91 3e
       -0.39346075 -0.11017628 0.5490468 0.28334308
000080 ea ac 2e be 29 3e 71 3e e5 ed 9b 3e 5c 00 28 3e
       -0.17058149 0.23558868 0.30454937 0.16406387
000090 99 a1 24 bf f6 99 43 be b1 e9 bd be dc 83 9b 3e
       -0.6430908 -0.191017 -0.37092355 0.30374038
0000a0 ce aa fb 3e 81 db f5 3e 75 25 43 3e 77 65 55 bb
       0.4915375 0.4801903 0.19057257 -0.0032561698
0000b0 90 a7 1a bf 33 98 08 3e 3b 26 c8 3e 26 4f d6 3d
       -0.6041193 0.1333931 0.39091668 0.10464315
0000c0 4a 19 41 3f fd 78 5c be 44 68 cf 3e 50 de a5 3c
       0.75429213 -0.21530528 0.40509236 0.020247608
0000d0 03 21 cb 3e 16 49 bd be f0 90 20 bf 60 fb 45 3f
       0.39673623 -0.36969823 -0.6272116 0.7733669
0000e0 25 05 49 3f 04 03 32 bf 94 22 23 be 20 fc 0d be
       0.78523475 -0.6953585 -0.1593116 -0.1386571
0000f0 b2 ca 16 be 83 1d 25 3f 27 b6 d9 3e 45 5c f1 3e
       -0.1472576 0.64498156 0.42521784 0.4714071

RNNlayer.bias_ih_l0 f4 [16]
000000 20 c5 82 3d 6a 72 6b 3e a2 bc cd 3e 7e 25 da 3f
       0.06385255 0.22992864 0.40182978 1.7042692
000010 78 2f 2a 3e 05 44 95 3d 90 05 7c 3e 06 16 02 3e
       0.1661967 0.07288364 0.24611497 0.12703714
000020 68 ad 4e 3e 17 ed a3 be fe bb 12 3f 3b b3 76 be
       0.20183337 -0.32016823 0.57318103 -0.24091808
000030 c4 d6 72 3e 9e 02 a7 be 42 83 07 3e 7a 12 ac 3e
       0.23714739 -0.32619184 0.13233665 0.33607846

RNNlayer.bias_hh_l0 f4 [16]
000000 9a 5e 8c 3e 03 fd 4a 3e a6 a5 b3 be 10 00 c9 3f
       0.27415925 0.19823079 -0.35087317 1.5703144
000010 30 df b2 be f7 82 36 3e 33 c9 bb 3e 76 d3 00 3f
       -0.34935904 0.17823397 0.3667694 0.50322664
000020 6f c9 7e be 7e 53 95 3d 45 ac 44 be 3f 24 c7 3b
       -0.24881528 0.072913155 -0.1920634 0.006077319
000030 3a 8b 51 3e fd 2e 92 be 16 4b 72 be cc 35 31 3f
       0.20463267 -0.28551474 -0.23661456 0.6922271

outputLayer.weight f4 [5, 4]
000000 b6 ea 80 be c5 b5 11 3f fc 42 d3 3d ab 84 28 3f
       -0.2517907 0.56917983 0.10315511 0.65827435
000010 46 7a 90 3d a3 89 ac 3c 4a 6b 30 be 00 f7 72 3e
       0.07054572 0.021061724 -0.17228428 0.23727036
000020 d7 0e 14 3d fa 5e df 3e 60 6a 2a bf 0a bb a1 3e
       0.036146965 0.4362715 -0.66568565 0.31588012
000030 0d ed 8c 3e 04 b0 cc 3e 83 03 57 bf 0e f3 85 3e
       0.27524605 0.3997804 -0.83989733 0.26162
000040 26 fc d1 be e2 5c e2 3e a5 d1 4c 3e 52 98 b8 3e
       -0.41012686 0.4421149 0.20001848 0.3605371

outputLayer.bias f4 [5]
000000 7b d0 82 be b9 ee 8c 3e 02 d8 a0 3e 8f 79 72 3e
       -0.25549683 0.2752588 0.314148 0.23679183
000010 e8 5d fe be
       -0.4968102

linear1.weight f4 [1, 5]
000000 d9 e3 f7 bd 7c 3e c9 be 9d b3 36 bf f6 66 dc be
       -0.12104005 -0.39305484 -0.7136782 -0.43047303
000010 c8 ba 77 3e
       0.24192345

laneGate1.weight f4 [3, 1]
000000 ac 13 f0 3d 54 e2 7f bf 42 90 ef bd
       0.11722502 -0.99954724 -0.11697437

laneGate1.bias f4 [3]
000000 16 75 f5 3d 8a 3d be 3e 67 14 1f bf
       0.11985223 0.37156326 -0.62140507

laneGate2.weight f4 [1, 3]
000000 d9 b1 48 3e b7 03 d9 bf 7f e3 0d bf
       0.19599093 -1.6954259 -0.55425256
